…
0d5-ce59-a994e8cca0c5"},"execution_count":null,"outputs":[{"output_type":"stream","name":"stdout","text":["Found 1363 images belonging to 10 classes.\n","Found 336 images belonging to 10 classes.\n","{'.ipynb_checkpoints': 0, '갈비구이': 1, '닭발구이': 2, '닭볶음탕': 3, '메밀소바': 4, '부대찌개': 5, '불고기': 6, '삼겹살구이': 7, '스테이크': 8, '토마토스파게티': 9}\n","Model: \"sequential_8\"\n","_________________________________________________________________\n"," Layer (type)                Output Shape              Param #   \n","=================================================================\n"," mobilenet_1.00_224 (Functio  (None, 7, 7, 1024)       3228864   \n"," nal)                                                            \n","                                                                 \n"," global_average_pooling2d_8   (None, 1024)             0         \n"," (GlobalAveragePooling2D)                                        \n","                                                                 \n"," dense_35 (Dense)            (None, 4096)              4198400   \n","                                                                 \n"," dropout_29 (Dropout)        (None, 4096)              0         \n","                                                                 \n"," dense_36 (Dense)            (None, 4096)              16781312  \n","                                                                 \n"," dropout_30 (Dropout)        (None, 4096)              0         \n","                                                                 \n"," dense_37 (Dense)            (None, 4096)              16781312  \n","                                                                 \n"," dropout_31 (Dropout)        (None, 4096)              0         \n","                                                                 \n"," dense_38 (Dense)            (None, 72)                294984    \n","                                                                 \n","=================================================================\n","Total params: 41,284,872\n","Trainable params: 41,262,984\n","Non-trainable params: 21,888\n","_________________________________________________________________\n","Epoch 1/30\n","43/43 [==============================] - 24s 186ms/step - loss: 3.2440 
…
cd-a141-f464e02a3498"},"execution_count":null,"outputs":[{"output_type":"stream","name":"stdout","text":["Found 1363 images belonging to 10 classes.\n","Found 336 images belonging to 10 classes.\n","{'.ipynb_checkpoints': 0, '갈비구이': 1, '닭발구이': 2, '닭볶음탕': 3, '메밀소바': 4, '부대찌개': 5, '불고기': 6, '삼겹살구이': 7, '스테이크': 8, '토마토스파게티': 9}\n","Model: \"sequential_10\"\n","_________________________________________________________________\n"," Layer (type)                Output Shape              Param #   \n","=================================================================\n"," mobilenet_1.00_224 (Functio  (None, 7, 7, 1024)       3228864   \n"," nal)                                                            \n","                                                                 \n"," global_average_pooling2d_10  (None, 1024)             0         \n","  (GlobalAveragePooling2D)                                       \n","                                                                 \n"," dense_43 (Dense)            (None, 8192)              8396800   \n","                                                                 \n"," dropout_35 (Dropout)        (None, 8192)              0         \n","                                                                 \n"," dense_44 (Dense)            (None, 8192)              67117056  \n","                                                                 \n"," dropout_36 (Dropout)        (None, 8192)              0         \n","                                                                 \n"," dense_45 (Dense)            (None, 8192)              67117056  \n","                                                                 \n"," dropout_37 (Dropout)        (None, 8192)              0         \n","                                                                 \n"," dense_46 (Dense)            (None, 10)                81930     \n","                                                                 \n","=================================================================\n","Total params: 145,941,706\n","Trainable params: 145,919,818\n","Non-trainable params: 21,888\n","_________________________________________________________________\n","Epoch 1/30\n","43/43 [==============================] - 22s 176ms/step - loss: 2.15
…
